Neural Network Tools for STM32AI v1.6.0 (STM.ai v7.3.0-RC5)
Created date          : 2023-01-13 19:03:27
Parameters            : generate --name network -m /home/kohigashi/PycharmProjects/FunctionFitting/NN_Model1.tflite --type tflite --compression none --verbosity 1 --workspace /tmp/mxAI_workspace349788026115454372350947765248363 --output /home/kohigashi/.stm32cubemx/network_output --allocate-inputs --allocate-outputs

Exec/report summary (generate)
----------------------------------------------------------------------------------------
model file         :   /home/kohigashi/PycharmProjects/FunctionFitting/NN_Model1.tflite
type               :   tflite                                                          
c_name             :   network                                                         
compression        :   none                                                            
options            :   allocate-inputs, allocate-outputs                               
optimization       :   balanced                                                        
target/series      :   generic                                                         
workspace dir      :   /tmp/mxAI_workspace349788026115454372350947765248363            
output dir         :   /home/kohigashi/.stm32cubemx/network_output                     
model_fmt          :   float                                                           
model_name         :   NN_Model1                                                       
model_hash         :   7282cae309f63a1fcf8e73dc4e73c35b                                
params #           :   4,677 items (6.27 KiB)                                          
----------------------------------------------------------------------------------------
input 1/1          :   'serving_default_dense_input0' (domain:activations/**default**) 
                   :   2 items, 8 B, ai_float, float, (1,1,1,2)                        
output 1/1         :   'nl_3' (domain:activations/**default**)                         
                   :   5 items, 20 B, ai_float, float, (1,1,1,5)                       
macc               :   4,880                                                           
weights (ro)       :   18,708 B (18.27 KiB) (1 segment)                                
activations (rw)   :   512 B (512 B) (1 segment) *                                     
ram (total)        :   512 B (512 B) = 512 + 0 + 0                                     
----------------------------------------------------------------------------------------
(*) 'input'/'output' buffers can be used from the activations buffer

Model name - NN_Model1 ['serving_default_dense_input0'] ['nl_3']
---------------------------------------------------------------------------------------------------------------------------------------------------------------------------------
id   layer (type,original)                     oshape       param/size    macc    connected to                   |   c_size             c_macc          c_type                  
---------------------------------------------------------------------------------------------------------------------------------------------------------------------------------
0    serving_default_dense_input0 (Input, )    [b:1,c:2]                                                         |   +768(+100.0%)      +256(+100.0%)   dense_of32/nl_of32[0, 1]
     dense_0 (Dense, FULLY_CONNECTED)          [b:1,c:64]   192/768       192     serving_default_dense_input0   |   -768(-100.0%)      -192(-100.0%)  
     nl_0_nl (Nonlinearity, FULLY_CONNECTED)   [b:1,c:64]                 64      dense_0                        |                      -64(-100.0%)   
---------------------------------------------------------------------------------------------------------------------------------------------------------------------------------
1    dense_1 (Dense, FULLY_CONNECTED)          [b:1,c:64]   4,160/4,352   4,160   nl_0_nl                        |   +12,288(+282.4%)   +64(+1.5%)      dense_of32/nl_of32[2, 3]
     nl_1_nl (Nonlinearity, FULLY_CONNECTED)   [b:1,c:64]                 64      dense_1                        |                      -64(-100.0%)   
---------------------------------------------------------------------------------------------------------------------------------------------------------------------------------
2    dense_2 (Dense, FULLY_CONNECTED)          [b:1,c:5]    325/1,300     325     nl_1_nl                        |                                      dense_of32[4]           
---------------------------------------------------------------------------------------------------------------------------------------------------------------------------------
3    nl_3 (Nonlinearity, SOFTMAX)              [b:1,c:5]                  75      dense_2                        |                                      nl_of32[o][5]           
---------------------------------------------------------------------------------------------------------------------------------------------------------------------------------
model/c-model: macc=4,880/4,880  weights=6,420/18,708 +12,288(+191.4%) activations=--/512 io=--/0



Generated C-graph summary
------------------------------------------------------------------------------------------------------------------------
model name            : nn_model1
c-name                : network
c-node #              : 6
c-array #             : 13
activations size      : 512 (1 segment)
weights size          : 18708 (1 segment)
macc                  : 4880
inputs                : ['serving_default_dense_input0_output']
outputs               : ['nl_3_output']

C-Arrays (13)
--------------------------------------------------------------------------------------------------------------------
c_id   name (*_array)                        item/size    domain/mem-pool           c-type        fmt       comment
--------------------------------------------------------------------------------------------------------------------
0      dense_1_bias                          64/256       weights/weights           const float   float32          
1      serving_default_dense_input0_output   2/8          activations/**default**   float         float32   /input 
2      dense_0_output                        64/256       activations/**default**   float         float32          
3      dense_2_weights                       320/1280     weights/weights           const float   float32          
4      nl_0_nl_output                        64/256       activations/**default**   float         float32          
5      dense_1_output                        64/256       activations/**default**   float         float32          
6      dense_2_bias                          5/20         weights/weights           const float   float32          
7      nl_1_nl_output                        64/256       activations/**default**   float         float32          
8      dense_2_output                        5/20         activations/**default**   float         float32          
9      nl_3_output                           5/20         activations/**default**   float         float32   /output
10     dense_0_weights                       128/512      weights/weights           const float   float32          
11     dense_0_bias                          64/256       weights/weights           const float   float32          
12     dense_1_weights                       4096/16384   weights/weights           const float   float32          
--------------------------------------------------------------------------------------------------------------------

C-Layers (6)
-------------------------------------------------------------------------------------------------------------------
c_id   name (*_layer)   id   layer_type   macc   rom     tensors                                  shape (array id)
-------------------------------------------------------------------------------------------------------------------
0      dense_0          0    dense        192    768     I: serving_default_dense_input0_output   (1,1,1,2) (1)   
                                                         W: dense_0_weights                       (2,1,1,64) (10) 
                                                         W: dense_0_bias                          (1,1,1,64) (11) 
                                                         O: dense_0_output                        (1,1,1,64) (2)  
-------------------------------------------------------------------------------------------------------------------
1      nl_0_nl          0    nl           64     0       I: dense_0_output                        (1,1,1,64) (2)  
                                                         O: nl_0_nl_output                        (1,1,1,64) (4)  
-------------------------------------------------------------------------------------------------------------------
2      dense_1          1    dense        4160   16640   I: nl_0_nl_output                        (1,1,1,64) (4)  
                                                         W: dense_1_weights                       (64,1,1,64) (12)
                                                         W: dense_1_bias                          (1,1,1,64) (0)  
                                                         O: dense_1_output                        (1,1,1,64) (5)  
-------------------------------------------------------------------------------------------------------------------
3      nl_1_nl          1    nl           64     0       I: dense_1_output                        (1,1,1,64) (5)  
                                                         O: nl_1_nl_output                        (1,1,1,64) (7)  
-------------------------------------------------------------------------------------------------------------------
4      dense_2          2    dense        325    1300    I: nl_1_nl_output                        (1,1,1,64) (7)  
                                                         W: dense_2_weights                       (64,1,1,5) (3)  
                                                         W: dense_2_bias                          (1,1,1,5) (6)   
                                                         O: dense_2_output                        (1,1,1,5) (8)   
-------------------------------------------------------------------------------------------------------------------
5      nl_3             3    nl           75     0       I: dense_2_output                        (1,1,1,5) (8)   
                                                         O: nl_3_output                           (1,1,1,5) (9)   
-------------------------------------------------------------------------------------------------------------------



Number of operations per c-layer
------------------------------------------------------------------------------------------
c_id    m_id   name (type)       #op (type)                       #param (sparsity)      
------------------------------------------------------------------------------------------
0       0      dense_0 (dense)               192 (smul_f32_f32)              192 (0.0000)
1       0      nl_0_nl (nl)                   64 (op_f32_f32)                            
2       1      dense_1 (dense)             4,160 (smul_f32_f32)            4,160 (0.6880)
3       1      nl_1_nl (nl)                   64 (op_f32_f32)                            
4       2      dense_2 (dense)               325 (smul_f32_f32)              325 (0.0000)
5       3      nl_3 (nl)                      75 (op_f32_f32)                            
------------------------------------------------------------------------------------------
total                                      4,880                           4,677 (0.6119)

  Number of operation types
  ---------------------------------------------
  smul_f32_f32               4,677       95.8%
  op_f32_f32                   203        4.2%

Complexity report (model)
-------------------------------------------------------------------------------------------------
m_id   name                           c_macc                    c_rom                     c_id  
-------------------------------------------------------------------------------------------------
0      serving_default_dense_input0   |                  5.2%   |                  4.1%   [0, 1]
1      dense_1                        ||||||||||||||||  86.6%   ||||||||||||||||  88.9%   [2, 3]
2      dense_2                        ||                 6.7%   ||                 6.9%   [4]   
3      nl_3                           |                  1.5%   |                  0.0%   [5]   
-------------------------------------------------------------------------------------------------
macc=4,880 weights=18,708 act=512 ram_io=0

Generated files (7)
---------------------------------------------------------------------------
/home/kohigashi/.stm32cubemx/network_output/network_config.h
/home/kohigashi/.stm32cubemx/network_output/network.h
/home/kohigashi/.stm32cubemx/network_output/network.c
/home/kohigashi/.stm32cubemx/network_output/network_data_params.h
/home/kohigashi/.stm32cubemx/network_output/network_data_params.c
/home/kohigashi/.stm32cubemx/network_output/network_data.h
/home/kohigashi/.stm32cubemx/network_output/network_data.c
